course/week3/conflearn_project/log/epoch=9-step=16000.ckpt (torch, 598398 bytes, 9 tensors)

model.0.weight f4 [64, 768]
0.001809556 0.034880113 -0.0151885 -0.020720491 0.010902616 0.019223932 -0.0332467 0.016081398
0.028934997 0.022401577 -0.012281521 0.010999438 0.033346236 0.032013476 -0.021212447 -0.00488759
0.028579213 -0.01567524 0.0026903476 -0.021457685 0.012776585 -0.033478793 0.007420983 0.015892938
0.019236537 0.031354036 0.00016514258 -0.02780071 0.02208624 -0.018375436 -0.01683062 0.03484423
0.014289511 -0.0180659 -0.017204933 -0.03499097 -0.022837322 -0.035237756 0.020636033 -0.004653176
0.03711038 -0.035025552 0.01310131 -0.00050141744 -0.004365689 0.0007687031 0.02614145 -0.026101071
0.02743971 -0.0026200912 0.01588786 0.027460415 -0.012854566 -0.00064909237 0.0008650264 0.015701383
0.030591467 -0.02141813 0.029569864 -0.014100499 0.020988556 0.02699452 -0.011574479 -0.0036858383
0.014204236 -0.033586353 -0.0003351531 -0.015688928 0.0013652652 0.022485245 -0.018530902 -0.013265341
0.033288687 0.02424044 0.002199339 0.016099162 0.018060273 0.01598209 0.02789754 -0.032870714
-0.014420311 0.034087293 -0.0028667105 -0.031983845 -0.0020499236 -0.034131892 -0.00208502 -0.004777174
-0.02319464 -0.01446467 -0.028638873 -0.026436422 0.03429497 0.004518033 0.029374449 -0.008724805
-0.029892994 0.0036682049 0.022186222 -0.0007850408 0.00067216315 0.024863377 -0.030206501 -0.03702666
-0.008296691 -0.02778932 -0.023361128 -0.005515385 0.007728116 0.024808696 -0.0048489114 -0.0014675255
0.012966961 -0.003700324 0.023307547 0.027990201 0.015338692 -0.031118995 -0.035689022 -0.0007137629
-0.0067142225 0.019034924 0.0302678 0.021417322 0.008246878 -0.014433925 -0.02612549 -0.026948364
0.0020230124 -0.016764106 0.029043937 0.016701061 0.019098293 -0.0065492895 -7.949936e-05 -0.00652396
0.018888175 -0.012032423 -0.02404511 -0.0082989745 -0.012108573 -0.020589707 0.017573327 -0.020701531
0.011301085 0.0114807505 0.0275895 -0.018639322 -0.012567048 0.024187086 0.026355123 -0.012764811
-0.011267189 0.036175247 -0.029609112 0.032497734 -0.026472408 0.022244561 0.0013730748 -0.028651316
0.03301818 0.0006303885 -0.020287076 0.007698826 0.03194005 0.02810192 -0.028589563 -0.019637806
0.024666501 -0.0025892502 -0.0070155654 0.031019606 -0.018501325 0.034311183 0.00701397 0.013145595
0.035328757 -0.0060325116 -0.01777458 -0.03355641 -0.030901171 0.023658516 0.005719669 -0.019347725
0.021683782 0.03053639 0.034702618 -0.02256072 0.028003715 0.03298857 -0.0012569595 0.00043478436
0.018756023 -0.030298581 0.013193993 0.03378037 0.00080447376 -0.0016765228 0.0070826747 -0.028372359
0.024006898 -0.006292302 -0.008017764 0.033797428 0.013032051 0.009006463 -0.023060711 0.005885542
-0.037318885 -0.013454382 0.024618465 0.036327485 -0.02321426 0.015972804 0.008393904 0.034257434
0.03381414 -0.029557852 -0.007799785 0.024316426 0.018288866 -0.028902236 0.021451589 0.023670051
-0.009488582 -0.03452649 0.034297507 -0.015453777 -0.02036161 0.0030455012 0.029073508 0.013145057
0.017541852 0.030856803 -0.005837957 0.024229005 -0.02403001 -0.011393141 -0.02320918 0.029990532
0.0018090064 -0.012608749 0.01717042 -0.0110867545 0.006644576 -0.033151895 0.02074303 -0.02543473
0.014957977 -0.0061424524 0.023320068 -0.011501747 0.017103799 -0.030835995 -0.03142653 -0.017864157
00000000: a02e ed3a 73de 0e3d 30d9 78bc 05be a9bc
00000010: e3a0 323c 827b 9d3c b12d 08bd 23bd 833c
00000020: 1609 ed3c 8383 b73c 6f38 49bc fd36 343c
00000030: 1096 083d 9020 033d bac5 adbc 1428 a0bb
00000040: f41e ea3c 5c69 80bc 8b50 303b 07c8 afbc
00000050: e254 513c 0f21 09bd b82b f33b e831 823c
00000060: f195 9d3c 176d 003d 202a 2d39 51be e3bc
00000070: 34ee b43c 1588 96bc 5ee0 89bc d3b8 0e3d
00000080: 8e1e 6a3c f0fe 93bc 5cf1 8cbc b152 0fbd
00000090: 5615 bbbc 7755 10bd e60c a93c ab79 98bb
000000a0: 0e01 183d f476 0fbd e0a6 563c 8e71 03ba
000000b0: 0e0e 8fbb cb82 493a 9826 d63c ead1 d5bc
000000c0: 3ec9 e03c d6b5 2bbb 4227 823c aaf4 e03c
000000d0: f59b 52bc da27 2aba f0c2 623a 30a0 803c
000000e0: f59a fa3c 1375 afbc 803c f23c c805 67bc
000000f0: 31f0 ab3c 9d23 dd3c e2a2 3dbc 1b8e 71bb
00000100: e2b8 683c d891 09bd 7db7 afb9 1186 80bc
00000110: b3f2 b23a fa32 b83c 1ece 97bc df56 59bc
00000120: b859 083d e393 c63c c922 103b 64e2 833c
00000130: 23f3 933c dfec 823c 6289 e43c 71a3 06bd
00000140: 2b43 6cbc 1e9f 0b3d 6cdf 3bbb 7e01 03bd
00000150: 0358 06bb e2cd 0bbd d5a4 08bb d789 9cbb
00000160: b002 bebc 39fd 6cbc 129c eabc 3291 d8bc
00000170: e278 0c3d 020c 943b afa2 f03c 7cf2 0ebc
00000180: 27e2 f4bc 4466 703b e1bf b53c 32cb 4dba
00000190: 1b34 303a 48ae cb3c a073 f7bc 44a9 17bd
000001a0: d8ee 07bc 6ea6 e3bc d65f bfbc 67ba b4bb
000001b0: 233c fd3b 9b3b cb3c 9ee3 9ebb fc59 c0ba
000001c0: 6073 543c 2381 72bb 78ef be3c b54b e53c
000001d0: 234f 7b3c 43ed febc a72e 12bd d11b 3bba
000001e0: fb02 dcbb 21ef 9b3c 2df4 f73c 6173 af3c
000001f0: ea1d 073c 457c 6cbc 2005 d6bc d1c2 dcbc
00000200: 8494 043b e154 89bc 8ded ed3c aad0 883c
00000210: 0674 9c3c 6c9b d6bb e5b8 a6b8 f1c6 d5bb
00000220: 60bb 9a3c a423 45bc 40fa c4bc 6cf8 07bc
00000230: 0963 46bc bfab a8bc f0f5 8f3c 4296 a9bc
00000240: 3028 393c c219 3c3c 6003 e23c 7eb1 98bc
00000250: 05e6 4dbc ff23 c63c b3e6 d73c 7f23 51bc
00000260: 049a 38bc 7f2c 143d cf8e f2bc 581c 053d
00000270: aadc d8bc 3a3a b63c bff8 b33a 2ab6 eabc
00000280: 123e 073d a840 253a 1531 a6bc 6f46 fc3b
00000290: 92d3 023d ff35 e63c a934 eabc 77df a0bc
000002a0: 6711 ca3c 69b0 29bb d4e2 e5bb d41c fe3c
000002b0: 1790 97bc e289 0c3d 72d5 e53b 9f60 573c
000002c0: e3b4 103d 60ac c5bb ff9b 91bc 7272 09bd
000002d0: 7424 fdbc 81cf c13c 106c bb3b 1f7f 9ebc
000002e0: 30a2 b13c 7427 fa3c 5524 0e3d 42d1 b8bc
000002f0: 0c68 e53c 061f 073d 90c0 a4ba c5f3 e339
00000300: 3ba6 993c bb34 f8bc 9e2b 583c 495d 0a3d
00000310: 52e3 523a c5be dbba c815 e83b 266d e8bc
00000320: 1daa c43c a82f cebb f15c 03bc 2c6f 0a3d
00000330: 6284 553c d88f 133c d1e9 bcbc 81db c03b
00000340: b0db 18bd c56f 5cbc aaac c93c 21cc 143d
00000350: d52b bebc 66d9 823c 9686 093c 8651 0c3d
00000360: b280 0a3d 4f23 f2bc 5795 ffbb 3e33 c73c
00000370: 88d2 953c 62c4 ecbc 3ebb af3c b2e7 c13c
00000380: ff75 1bbc a66b 0dbd 8b7b 0c3d d731 7dbc
00000390: 64cd a6bc 0897 473b 912b ee3c 5d5e 573c
000003a0: eeb3 8f3c 68c7 fc3c 554c bfbb e87b c63c
000003b0: 95da c4bc 4caa 3abc 2e21 bebc b4ae f53c
000003c0: 2f1c ed3a ed94 4ebc fba8 8c3c 38a5 35bc
000003d0: beba d93b 48ca 07bd 49ed a93c 7f5c d0bc
000003e0: 4e12 753c a046 c9bb ba09 bf3c d371 3cbc
000003f0: 441d 8c3c c59b fcbc 1bb9 00bd da57 92bc

model.0.bias f4 [64]
-0.024088083 0.011102119 -0.0011539587 -0.034702938 -0.031577397 -0.018542275 -0.026529644 -0.0056312624
0.02542064 -0.02459186 -0.026475646 0.021926593 0.02335023 -0.03534294 0.015245725 0.0203172
0.018990284 0.0307352 -0.0302861 0.005483044 0.008840536 -0.024532828 -0.029855957 -0.024966963
-0.022504017 0.030240782 0.0056841043 0.024166169 -0.016919188 0.024951655 -0.002568439 0.019890253
0.002660522 0.00089261815 0.007454986 0.028115202 -0.024095846 0.011415304 0.025464645 0.031561315
0.03325236 0.022969775 -0.019763224 0.0337915 0.011282117 -0.0065061515 -0.016404474 0.02584037
0.0036036638 -0.029964987 -0.011115691 -0.029588878 0.017967112 0.009993264 -0.018247759 -0.004458144
-0.014832853 0.01982885 0.022613285 -0.0008495563 -0.033689745 0.0026202605 -0.023628911 0.016532982
00000000: 5f54 c5bc aae5 353c 6e40 97ba ab24 0ebd
00000010: 4d57 01bd f8e5 97bc b254 d9bc 7486 b8bb
00000020: f23e d03c de74 c9bc 74e3 d8bc 669f b33c
00000030: fb48 bf3c c2c3 10bd 35c9 793c 4270 a63c
00000040: 8391 9b3c 63c8 fb3c 8e1a f8bc 1bab b33b
00000050: e5d7 103c 12f9 c8bc 7b94 f4bc 8487 ccbc
00000060: 585a b8bc 84bb f73c b941 ba3b 21f8 c53c
00000070: 1c9a 8abc 6a67 cc3c 4253 28bb e2f0 a23c
00000080: 275c 2e3b 97fe 693a f548 f43b da51 e63c
00000090: a764 c5bc 4107 3b3c 3b9b d03c 7046 013d
000000a0: a033 083d 1c2b bc3c 7ce6 a1bc f568 0a3d
000000b0: a1d8 383c 8e31 d5bb ad62 86bc 2faf d33c
000000c0: 722b 6c3b 2279 f5bc 961e 36bc 6064 f2bc
000000d0: c42f 933c caba 233c 537c 95bc 9f15 92bb
000000e0: 7f05 73bc 1d70 a23c 7f3f b93c c2b4 5eba
000000f0: 42fe 09bd adb8 2b3b 6b91 c1bc 2d70 873c

model.2.weight f4 [1, 64]
0.003374501 -0.0548299 -0.050322145 -0.026170956 0.006103933 0.017641975 -0.09772074 0.08719318
-0.10691601 0.09855431 0.06366279 0.049850035 -0.05246839 -0.1056173 -0.015747508 -0.052912492
0.08452521 -0.008400889 0.0031028986 0.033485375 -0.07427835 0.10546802 0.090299055 0.0492045
3.1268907 -0.11004296 -0.00017941078 -0.092268445 -0.0336147 0.006092368 -0.119486734 -0.019469755
-0.115710355 -0.007608332 -0.049921572 0.10082027 0.06459607 0.003247957 0.019089177 -0.00023371521
-0.007839117 -0.011204621 0.094429165 0.10017851 0.03243775 0.027869854 -0.0046542385 -0.045133043
-0.081718445 -0.061098687 0.007074023 0.011324095 -0.04844865 3.174363 -0.026493864 0.023417475
-0.013940692 0.10397902 -0.11733653 0.07788323 0.016811093 -0.11609654 0.05553835 4.053102e-05
00000000: bb26 5d3b 5195 60bd 981e 4ebd 7964 d6bc
00000010: 8003 c83b e785 903c d021 c8bd 5792 b23d
00000020: c8f6 dabd d8d6 c93d a361 823d 8d2f 4c3d
00000030: 18e9 56bd e24d d8bd eb00 81bc c5ba 58bd
00000040: 8e1b ad3d e2a3 09bc 005a 4b3b f627 093d
00000050: 3f1f 98bd 9eff d73d b6ee b83d a88a 493d
00000060: fa1e 4840 345e e1bd 3720 3cb9 3df7 bcbd
00000070: 91af 09bd 7da2 c73b 76b5 f4bd 097f 9fbc
00000080: 8df9 ecbd 514f f9bb 907a 4cbd dc7a ce3d
00000090: f24a 843d addb 543b e860 9c3c 7311 75b9
000000a0: a46f 00bc 9693 37bc 1464 c13d 642a cd3d
000000b0: 72dd 043d 524f e43c 9582 98bb 6ddd 38bd
000000c0: 005c a7bd 9e42 7abd 35cd e73b b288 393c
000000d0: 1772 46bd c328 4b40 a909 d9bc 01d6 bf3c
000000e0: 8067 64bc f4f2 d43d 224e f0bd 3e81 9f3d
000000f0: 6bb7 893c 06c4 edbd 2e7c 633d daff 2938

exp_avg f4 [64, 768]
-6e-45 -6e-45 -6e-45 -6e-45 6e-45 6e-45 6e-45 -6e-45
-6e-45 -6e-45 6e-45 -6e-45 -6e-45 6e-45 -6e-45 6e-45
6e-45 -6e-45 6e-45 6e-45 -6e-45 6e-45 6e-45 6e-45
6e-45 6e-45 -6e-45 -6e-45 6e-45 6e-45 6e-45 6e-45
6e-45 6e-45 -6e-45 6e-45 -6e-45 6e-45 6e-45 -6e-45
-6e-45 6e-45 6e-45 -6e-45 -6e-45 6e-45 6e-45 6e-45
-6e-45 -6e-45 -6e-45 6e-45 6e-45 6e-45 -6e-45 6e-45
-6e-45 6e-45 -6e-45 -6e-45 -6e-45 -6e-45 6e-45 -6e-45
6e-45 -6e-45 6e-45 -6e-45 -6e-45 6e-45 -6e-45 6e-45
6e-45 -6e-45 -6e-45 6e-45 -6e-45 -6e-45 6e-45 6e-45
-6e-45 6e-45 6e-45 6e-45 -6e-45 -6e-45 -6e-45 -6e-45
6e-45 6e-45 -6e-45 -6e-45 6e-45 6e-45 -6e-45 -6e-45
-6e-45 -6e-45 -6e-45 -6e-45 6e-45 -6e-45 -6e-45 6e-45
6e-45 -6e-45 6e-45 6e-45 6e-45 -6e-45 -6e-45 6e-45
6e-45 -6e-45 6e-45 6e-45 6e-45 -6e-45 6e-45 -6e-45
6e-45 -6e-45 6e-45 6e-45 -6e-45 6e-45 6e-45 6e-45
6e-45 6e-45 -6e-45 6e-45 -6e-45 6e-45 6e-45 6e-45
6e-45 -6e-45 -6e-45 6e-45 6e-45 6e-45 -6e-45 6e-45
6e-45 6e-45 6e-45 -6e-45 6e-45 6e-45 6e-45 6e-45
-6e-45 -6e-45 -6e-45 -6e-45 -6e-45 -6e-45 -6e-45 6e-45
6e-45 -6e-45 -6e-45 -6e-45 -6e-45 -6e-45 6e-45 6e-45
-6e-45 -6e-45 -6e-45 -6e-45 -6e-45 6e-45 -6e-45 6e-45
-6e-45 6e-45 6e-45 6e-45 6e-45 -6e-45 -6e-45 6e-45
6e-45 6e-45 -6e-45 6e-45 6e-45 6e-45 6e-45 -6e-45
-6e-45 6e-45 -6e-45 6e-45 -6e-45 6e-45 -6e-45 -6e-45
6e-45 -6e-45 -6e-45 6e-45 6e-45 6e-45 -6e-45 -6e-45
6e-45 6e-45 6e-45 -6e-45 6e-45 6e-45 -6e-45 -6e-45
6e-45 6e-45 6e-45 -6e-45 -6e-45 6e-45 6e-45 -6e-45
6e-45 -6e-45 -6e-45 -6e-45 6e-45 6e-45 6e-45 -6e-45
6e-45 -6e-45 -6e-45 -6e-45 -6e-45 6e-45 6e-45 6e-45
6e-45 6e-45 6e-45 6e-45 6e-45 -6e-45 6e-45 -6e-45
-6e-45 -6e-45 -6e-45 -6e-45 6e-45 -6e-45 6e-45 6e-45
00000000: 0400 0080 0400 0080 0400 0080 0400 0080
00000010: 0400 0000 0400 0000 0400 0000 0400 0080
00000020: 0400 0080 0400 0080 0400 0000 0400 0080
00000030: 0400 0080 0400 0000 0400 0080 0400 0000
00000040: 0400 0000 0400 0080 0400 0000 0400 0000
00000050: 0400 0080 0400 0000 0400 0000 0400 0000
00000060: 0400 0000 0400 0000 0400 0080 0400 0080
00000070: 0400 0000 0400 0000 0400 0000 0400 0000
00000080: 0400 0000 0400 0000 0400 0080 0400 0000
00000090: 0400 0080 0400 0000 0400 0000 0400 0080
000000a0: 0400 0080 0400 0000 0400 0000 0400 0080
000000b0: 0400 0080 0400 0000 0400 0000 0400 0000
000000c0: 0400 0080 0400 0080 0400 0080 0400 0000
000000d0: 0400 0000 0400 0000 0400 0080 0400 0000
000000e0: 0400 0080 0400 0000 0400 0080 0400 0080
000000f0: 0400 0080 0400 0080 0400 0000 0400 0080
00000100: 0400 0000 0400 0080 0400 0000 0400 0080
00000110: 0400 0080 0400 0000 0400 0080 0400 0000
00000120: 0400 0000 0400 0080 0400 0080 0400 0000
00000130: 0400 0080 0400 0080 0400 0000 0400 0000
00000140: 0400 0080 0400 0000 0400 0000 0400 0000
00000150: 0400 0080 0400 0080 0400 0080 0400 0080
00000160: 0400 0000 0400 0000 0400 0080 0400 0080
00000170: 0400 0000 0400 0000 0400 0080 0400 0080
00000180: 0400 0080 0400 0080 0400 0080 0400 0080
00000190: 0400 0000 0400 0080 0400 0080 0400 0000
000001a0: 0400 0000 0400 0080 0400 0000 0400 0000
000001b0: 0400 0000 0400 0080 0400 0080 0400 0000
000001c0: 0400 0000 0400 0080 0400 0000 0400 0000
000001d0: 0400 0000 0400 0080 0400 0000 0400 0080
000001e0: 0400 0000 0400 0080 0400 0000 0400 0000
000001f0: 0400 0080 0400 0000 0400 0000 0400 0000
00000200: 0400 0000 0400 0000 0400 0080 0400 0000
00000210: 0400 0080 0400 0000 0400 0000 0400 0000
00000220: 0400 0000 0400 0080 0400 0080 0400 0000
00000230: 0400 0000 0400 0000 0400 0080 0400 0000
00000240: 0400 0000 0400 0000 0400 0000 0400 0080
00000250: 0400 0000 0400 0000 0400 0000 0400 0000
00000260: 0400 0080 0400 0080 0400 0080 0400 0080
00000270: 0400 0080 0400 0080 0400 0080 0400 0000
00000280: 0400 0000 0400 0080 0400 0080 0400 0080
00000290: 0400 0080 0400 0080 0400 0000 0400 0000
000002a0: 0400 0080 0400 0080 0400 0080 0400 0080
000002b0: 0400 0080 0400 0000 0400 0080 0400 0000
000002c0: 0400 0080 0400 0000 0400 0000 0400 0000
000002d0: 0400 0000 0400 0080 0400 0080 0400 0000
000002e0: 0400 0000 0400 0000 0400 0080 0400 0000
000002f0: 0400 0000 0400 0000 0400 0000 0400 0080
00000300: 0400 0080 0400 0000 0400 0080 0400 0000
00000310: 0400 0080 0400 0000 0400 0080 0400 0080
00000320: 0400 0000 0400 0080 0400 0080 0400 0000
00000330: 0400 0000 0400 0000 0400 0080 0400 0080
00000340: 0400 0000 0400 0000 0400 0000 0400 0080
00000350: 0400 0000 0400 0000 0400 0080 0400 0080
00000360: 0400 0000 0400 0000 0400 0000 0400 0080
00000370: 0400 0080 0400 0000 0400 0000 0400 0080
00000380: 0400 0000 0400 0080 0400 0080 0400 0080
00000390: 0400 0000 0400 0000 0400 0000 0400 0080
000003a0: 0400 0000 0400 0080 0400 0080 0400 0080
000003b0: 0400 0080 0400 0000 0400 0000 0400 0000
000003c0: 0400 0000 0400 0000 0400 0000 0400 0000
000003d0: 0400 0000 0400 0080 0400 0000 0400 0080
000003e0: 0400 0080 0400 0080 0400 0080 0400 0080
000003f0: 0400 0000 0400 0080 0400 0000 0400 0000

exp_avg_sq f4 [64, 768]
2.793734e-20 6.1359613e-18 6.1982083e-18 9.038806e-19 2.7067738e-18 6.233257e-18 8.855916e-18 6.462256e-19
8.51023e-19 3.7277812e-18 8.908659e-18 9.888436e-21 1.0945113e-18 1.9308461e-18 3.480138e-18 3.3453566e-17
6.180489e-18 3.2783973e-17 3.1918847e-19 5.863096e-20 1.0301517e-17 9.587958e-19 3.179938e-17 1.4869246e-17
2.3885541e-18 3.886039e-19 2.6165474e-18 5.543313e-20 3.2783488e-18 7.507619e-18 1.2411413e-17 2.555219e-19
1.8137513e-18 9.298977e-18 8.488649e-18 4.8040225e-19 1.425402e-17 2.0413436e-20 9.799023e-18 6.9124795e-18
1.2169104e-18 4.709451e-18 5.689076e-18 3.2116505e-18 1.641264e-18 2.3606773e-17 9.1463e-18 1.3504039e-19
2.4284186e-18 1.5469988e-18 1.5598616e-17 1.8588568e-17 1.2896962e-17 5.282594e-18 2.2604675e-19 3.8182132e-19
2.2834745e-18 9.4726705e-18 6.1845187e-19 1.0989585e-18 2.3893178e-18 5.530874e-18 3.4724848e-20 5.0648843e-19
1.3989329e-19 2.7206014e-18 1.5090672e-18 2.9873564e-18 3.1638693e-18 4.5981275e-19 1.2104545e-18 2.9812733e-18
4.214068e-18 1.3525534e-17 1.1591156e-17 4.0576394e-19 5.0860173e-17 1.3525799e-18 1.2973299e-17 2.5360087e-17
1.1651117e-18 6.9166006e-18 1.4411846e-19 6.9473584e-18 1.2507023e-19 3.2935848e-19 3.2702425e-19 2.4824763e-18
4.4107934e-18 1.0051535e-17 5.586016e-18 2.2219254e-17 9.466503e-19 4.4248347e-20 1.8700238e-18 7.5482725e-20
1.4290031e-19 8.811648e-19 4.487551e-18 4.3617217e-18 5.661614e-19 8.265097e-18 3.020123e-18 9.425197e-18
4.04716e-20 6.068244e-18 1.6624114e-20 1.3787906e-17 6.343463e-19 1.6564815e-18 4.1884232e-18 2.7464385e-17
1.4713636e-17 4.0255346e-20 9.435074e-20 4.7445657e-18 3.4754684e-18 1.27356615e-17 2.7328262e-17 1.3666848e-17
1.5106454e-20 1.3497498e-18 2.1494172e-18 5.9603942e-18 6.9081844e-18 1.0385437e-17 2.7715363e-18 1.1463923e-17
5.0773963e-18 1.4739591e-18 1.3141055e-19 1.89201e-18 2.0015318e-18 3.1258326e-18 7.54889e-18 2.0554772e-18
7.052636e-21 1.5904604e-17 7.444416e-18 1.0393373e-17 1.5067801e-17 3.2248984e-18 2.8562528e-19 4.8494336e-18
1.1873559e-18 7.4780395e-18 2.3571523e-18 2.1685349e-17 6.925414e-19 1.8426838e-17 1.0350763e-18 3.2498975e-18
2.172065e-18 1.194008e-17 9.937149e-18 2.1372993e-18 8.160602e-20 1.403279e-17 2.0820963e-18 1.8682137e-17
3.171405e-19 8.160924e-20 4.6073547e-18 7.061625e-18 2.3846263e-19 2.6788776e-18 3.5971733e-20 1.1968292e-18
7.326472e-19 2.7505454e-17 2.0926644e-18 4.3407454e-17 2.0886726e-18 5.860064e-18 1.489553e-17 1.0572019e-17
1.1798214e-17 1.4617886e-18 2.3094936e-17 1.8034185e-19 1.610371e-21 5.9072566e-18 1.7308881e-19 1.13948e-18
1.3234697e-17 1.03361305e-17 2.240941e-17 1.5157277e-18 2.4302798e-18 1.0754649e-17 2.5398287e-18 6.100718e-19
2.8202092e-18 2.071633e-18 6.372324e-18 4.553204e-18 6.9228665e-18 4.64708e-18 8.306454e-18 6.69894e-18
1.38034665e-17 2.2756912e-17 2.8142313e-19 8.25409e-19 9.679933e-18 1.2930971e-20 4.3416415e-19 1.5996177e-18
2.5922215e-18 4.8927303e-18 2.11377e-18 2.2689167e-17 1.02388515e-17 6.825279e-20 2.679809e-19 5.9736797e-19
5.136479e-18 8.504082e-18 1.2511813e-18 2.0939027e-17 2.994527e-18 3.1004057e-18 1.1212035e-17 8.924129e-18
4.4989423e-18 1.341583e-17 2.3257187e-17 2.2396298e-18 6.5737776e-18 6.0091433e-18 3.0560306e-18 1.1035987e-17
3.3025947e-18 3.0469483e-18 2.6990295e-17 1.8526402e-17 1.3512255e-18 1.0524884e-17 3.8311362e-18 4.794537e-18
9.6379876e-18 1.1754823e-19 2.1071456e-18 3.5000282e-18 3.2673992e-18 2.3887702e-18 4.2306558e-18 1.7512972e-17
2.479356e-19 1.1494502e-17 6.8043662e-18 5.5883313e-18 2.5117121e-17 8.831731e-18 7.389641e-18 2.1343988e-17
00000000: 2cee 031f 8460 e222 6cac e422 a563 8521
00000010: 83b9 4722 73f7 e522 e25c 2323 6dbb 3e21
00000020: 7b2d 7b21 e687 8922 f455 2423 8bc9 3a1e
00000030: 7885 a121 a778 0e22 f964 8022 0047 1a24
00000040: 1105 e422 7c30 1724 666a bc20 3e70 8a1f
00000050: 8a07 3e23 487e 8d21 15a6 1224 0425 8923
00000060: 833e 3022 2964 e520 2f11 4122 45e3 821f
00000070: 42e6 7122 ba7d 0a23 3ef3 6423 61d5 9620
00000080: cbd4 0522 2d89 2b23 8396 1c23 2bca 0d21
00000090: 5a78 8323 a9cc c01e 94c2 3423 8606 ff22
000000a0: 9395 b321 82bf ad22 cee3 d122 5dfa 6c22
000000b0: 3335 f221 ebbb d923 2eb8 2823 746d 1f20
000000c0: 882f 3322 f64b e421 31df 8f23 0473 ab23
000000d0: 2ee8 6d23 b1e4 c222 386f 8520 3563 e120
000000e0: 9d7d 2822 6cbd 2e23 e788 3621 7a2d a221
000000f0: f04c 3022 a10d cc22 c4fb 231f 2f7d 1521
00000100: 2728 2520 b5be 4822 f2b2 de21 916d 5c22
00000110: cd73 6922 78b6 0721 aea1 b221 a9fa 5b22
00000120: bf78 9b22 8780 7923 b0d1 5523 5085 ef20
00000130: 188d 6a24 069b c721 ac50 6f23 d0e7 e923
00000140: adf0 ab21 722d ff22 2225 2a20 f927 0023
00000150: 28a8 1320 3f6b c220 820a c120 a72c 3722
00000160: c4ba a222 086b 3923 6e16 ce22 bbef cc23
00000170: 70b3 8b21 f8f4 501f c0fb 0922 823a b21f
00000180: f8b4 2820 7709 8221 b98f a522 4ceb a022
00000190: f219 2721 d176 1823 83d8 5e22 3cdd 2d23
000001a0: 2a1f 3f1f f2e0 df22 a402 9d1e 8c57 7e23
000001b0: da39 3b21 1a74 f421 8a86 9a22 7250 fd23
000001c0: 97b5 8723 ba19 3e1f 86c7 de1f 280b af22
000001d0: df38 8022 76ee 6a23 090f fc23 dd1b 7c23
000001e0: 2aad 8e1e 1b30 c721 5899 1e22 55e6 db22
000001f0: f5dd fe22 d793 3f23 d780 4c22 d978 5323
00000200: a752 bb22 9a84 d921 6724 1b20 0f9b 0b22
00000210: deaf 1322 4fa5 6622 a040 0b23 deaa 1722
00000220: 7438 051e afb1 9223 4353 0923 51b9 3f23
00000230: d7f9 8a23 9cf4 6d22 799a a820 9be9 b222
00000240: 0a39 af21 0bf2 0923 59ed 2d22 1503 c823
00000250: f366 4c21 24f5 a923 14c0 9821 d4cc 6f22
00000260: 2645 2022 6f41 5c23 dc4e 3723 71b4 1d22
00000270: d0af c01f fd6d 8123 b0a1 1922 f34f ac23
00000280: eb34 bb20 c2b1 c01f 3cfb a922 9543 0223
00000290: 74c3 8c20 91aa 4522 28df 291f ee9e b021
000002a0: 423d 5821 6bb1 fd23 5069 1a22 7a2e 4824
000002b0: e91d 1a22 bd32 d822 1363 8923 f304 4323
000002c0: 7ea3 5923 d0b8 d721 6003 d523 fbe8 5420
000002d0: 365a f31c 76f0 d922 e258 4c20 5628 a821
000002e0: 1723 7423 ffaa 3e23 b9b0 ce23 93ae df21
000002f0: b052 3322 6563 4623 0268 3b22 b90f 3421
00000300: 3f18 5022 0adc 1822 e618 eb22 ccfb a722
00000310: a068 ff22 6e72 ab22 1f3a 1923 b325 f722
00000320: 07a1 7e23 3de5 d123 761f a620 249e 7321
00000330: 3190 3223 5742 741e 8424 0021 d90f ec21
00000340: ae45 3f22 8882 b422 fdf7 1b22 4845 d123
00000350: 9cdf 3c23 4828 a11f 2130 9e20 d94f 3021
00000360: ac80 bd22 64df 1c23 4ba4 b821 e120 c123
00000370: 04f5 5c22 02c5 6422 57d3 4e23 029f 2423
00000380: 4ffb a522 777a 7723 7b82 d623 6941 2522
00000390: 9387 f222 c1b2 dd22 c97e 6122 fa93 4b23
000003a0: 40b0 7322 3ad3 6022 08f1 f823 3be0 aa23
000003b0: db67 c721 5c26 4223 0f58 8d22 1fe3 b022
000003c0: 1cca 3123 c6c6 0a20 db7a 1b22 d520 8122
000003d0: 6d17 7122 9842 3022 6a15 9c22 5687 a123
000003e0: f85a 9220 4009 5423 6c09 fb22 4c2c ce22
000003f0: 20aa e723 acea 2223 9850 0823 11dd c423

exp_avg f4 [64]
6e-45 6e-45 0.0 6e-45 0.0 6e-45 6e-45 6e-45
0.0 0.0 6e-45 6e-45 0.0 0.0 6e-45 6e-45
0.0 6e-45 0.0 6e-45 6e-45 0.0 0.0 0.0
-0.05693532 6e-45 6e-45 6e-45 6e-45 6e-45 0.0 6e-45
6e-45 6e-45 0.0 0.0 6e-45 6e-45 0.0 6e-45
6e-45 6e-45 6e-45 0.0 6e-45 6e-45 6e-45 6e-45
6e-45 6e-45 6e-45 6e-45 6e-45 -0.06293534 6e-45 6e-45
0.0 0.0 0.0 6e-45 6e-45 6e-45 6e-45 6e-45
00000000: 0400 0000 0400 0000 0000 0000 0400 0000
00000010: 0000 0000 0400 0000 0400 0000 0400 0000
00000020: 0000 0000 0000 0000 0400 0000 0400 0000
00000030: 0000 0000 0000 0000 0400 0000 0400 0000
00000040: 0000 0000 0400 0000 0000 0000 0400 0000
00000050: 0400 0000 0000 0000 0000 0000 0000 0000
00000060: 0335 69bd 0400 0000 0400 0000 0400 0000
00000070: 0400 0000 0400 0000 0000 0000 0400 0000
00000080: 0400 0000 0400 0000 0000 0000 0000 0000
00000090: 0400 0000 0400 0000 0000 0000 0400 0000
000000a0: 0400 0000 0400 0000 0400 0000 0000 0000
000000b0: 0400 0000 0400 0000 0400 0000 0400 0000
000000c0: 0400 0000 0400 0000 0400 0000 0400 0000
000000d0: 0400 0000 3ee4 80bd 0400 0000 0400 0000
000000e0: 0000 0000 0000 0000 0000 0000 0400 0000
000000f0: 0400 0000 0400 0000 0400 0000 0400 0000

exp_avg_sq f4 [64]
1.4095242e-16 4.236337e-13 0.0 6.5999397e-15 0.0 4.028108e-14 8.4932204e-14 7.615827e-13
0.0 0.0 3.9973206e-13 2.5978395e-13 0.0 0.0 2.743458e-15 3.963956e-13
0.0 8.501913e-16 0.0 1.2698088e-13 5.016544e-14 0.0 0.0 0.0
0.034267176 1.7027904e-12 4.4465065e-18 7.938208e-14 1.281014e-14 1.039956e-15 0.0 6.3146706e-14
4.0392384e-15 1.0392271e-14 0.0 0.0 4.845067e-16 1.0118172e-15 0.0 5.4503043e-17
7.335937e-16 1.4433805e-15 9.513637e-13 0.0 2.3786162e-13 5.971127e-15 6.1059725e-15 1.7418321e-14
5.507928e-14 5.41997e-13 6.0702764e-15 1.2440174e-14 2.0233737e-14 0.035469413 3.0774747e-14 3.803078e-15
0.0 0.0 0.0 1.4394495e-12 8.922443e-15 1.1603656e-13 7.364886e-13 5.329598e-16
00000000: d081 2225 0d7c ee2a 0000 0000 b3c9 ed27
00000010: 0000 0000 ec68 3529 1540 bf29 d15d 562b
00000020: 0000 0000 0000 0000 7607 e12a d03e 922a
00000030: 0000 0000 0000 0000 deaf 4527 a026 df2a
00000040: 0000 0000 0c0d 7526 0000 0000 bff7 0e2a
00000050: d1ec 6129 0000 0000 0000 0000 0000 0000
00000060: bd5b 0c3d 7da5 ef2b 110c a422 a7c0 b229
00000070: 58c4 6628 9bdf 9526 0000 0000 9931 8e29
00000080: 6687 9127 e435 3b28 0000 0000 0000 0000
00000090: 49a6 0b26 77d1 9126 0000 0000 d659 7b24
000000a0: a971 5326 5703 d026 7de4 852b 0000 0000
000000b0: 79e7 852a ed21 d727 a8fd db27 eae3 9c28
000000c0: 160e 7829 008f 182b 6bb4 da27 2d1a 6028
000000d0: d23f b628 6048 113d de98 0a29 3405 8927
000000e0: 0000 0000 0000 0000 0000 0000 a295 ca2b
000000f0: 81bb 2028 43a5 022a 994d 4f2b 7e9d 1926

exp_avg f4 [1, 64]
6e-45 -6e-45 0.0 -6e-45 0.0 6e-45 -6e-45 6e-45
0.0 0.0 6e-45 6e-45 0.0 0.0 -6e-45 -6e-45
0.0 -6e-45 0.0 6e-45 -6e-45 0.0 0.0 0.0
-0.018644517 -6e-45 -6e-45 -6e-45 -6e-45 6e-45 0.0 -6e-45
-6e-45 -6e-45 0.0 0.0 6e-45 6e-45 0.0 6e-45
-6e-45 -6e-45 6e-45 0.0 -6e-45 6e-45 -6e-45 -6e-45
-6e-45 -6e-45 6e-45 -6e-45 -6e-45 -0.018256998 -6e-45 6e-45
0.0 0.0 0.0 -6e-45 6e-45 -6e-45 6e-45 6e-45
00000000: 0400 0000 0400 0080 0000 0000 0400 0080
00000010: 0000 0000 0400 0000 0400 0080 0400 0000
00000020: 0000 0000 0000 0000 0400 0000 0400 0000
00000030: 0000 0000 0000 0000 0400 0080 0400 0080
00000040: 0000 0000 0400 0080 0000 0000 0400 0000
00000050: 0400 0080 0000 0000 0000 0000 0000 0000
00000060: 63bc 98bc 0400 0080 0400 0080 0400 0080
00000070: 0400 0080 0400 0000 0000 0000 0400 0080
00000080: 0400 0080 0400 0080 0000 0000 0000 0000
00000090: 0400 0000 0400 0000 0000 0000 0400 0000
000000a0: 0400 0080 0400 0080 0400 0000 0000 0000
000000b0: 0400 0080 0400 0000 0400 0080 0400 0080
000000c0: 0400 0080 0400 0080 0400 0000 0400 0080
000000d0: 0400 0080 b38f 95bc 0400 0080 0400 0000
000000e0: 0000 0000 0000 0000 0000 0000 0400 0080
000000f0: 0400 0000 0400 0080 0400 0000 0400 0000

exp_avg_sq f4 [1, 64]
5.7826067e-15 2.1978968e-12 0.0 3.3416873e-14 0.0 8.8278045e-13 2.4718351e-14 3.7488526e-13
0.0 0.0 6.1854406e-13 1.4560397e-12 0.0 0.0 2.0021213e-14 4.936211e-12
0.0 1.9107847e-14 0.0 1.1171508e-12 4.6450718e-14 0.0 0.0 0.0
0.0006378827 8.716978e-12 1.0030149e-12 6.194026e-14 8.769702e-14 6.1014175e-14 0.0 4.165921e-12
2.684786e-17 4.9918767e-12 0.0 0.0 3.0061033e-19 6.262083e-13 0.0 3.46023e-13
5.3399045e-15 3.0795834e-14 1.0077731e-12 0.0 9.000826e-12 2.0405933e-14 9.659583e-12 5.1260575e-15
1.5481834e-14 5.4144354e-12 1.6702426e-12 3.823457e-13 1.6907601e-14 0.00060201384 1.6418896e-13 1.50556e-14
0.0 0.0 0.0 1.0189975e-11 9.580572e-14 7.62045e-15 9.123189e-12 7.78128e-12
00000000: 2257 d027 caa9 1a2c 0000 0000 087f 1629
00000010: 0000 0000 097b 782b a3a4 de28 a90a d32a
00000020: 0000 0000 0000 0000 cc1a 2e2b 5ceb cc2b
00000030: 0000 0000 0000 0000 c655 b428 70ad ad2c
00000040: 0000 0000 b21b ac28 0000 0000 9939 9d2b
00000050: 0832 5129 0000 0000 0000 0000 0000 0000
00000060: 9537 273a c759 192d 6c29 8d2b 217a 8b29
00000070: e479 c529 4764 8929 0000 0000 4893 922c
00000080: b8a0 f723 d4a2 af2c 0000 0000 0000 0000
00000090: f372 b120 1043 302b 0000 0000 2bcb c22a
000000a0: ed63 c027 2eb1 0a29 dad4 8d2b 0000 0000
000000b0: 1e58 1e2d e1cc b728 e5ee 292d 89af b827
000000c0: ae72 8b28 e680 be2c d510 eb2b d33d d72a
000000d0: 464a 9828 77d0 1d3a 3fdc 382a da9b 8728
000000e0: 0000 0000 0000 0000 0000 0000 9143 332d
000000f0: 3dbc d729 1f47 0928 317f 202d c5e3 082d
